…
Found GPU at: [PhysicalDevice(name='/physical_device:GPU:0', device_type='GPU')]
temblor
no         32
si         21
dtype: int64
(53,)
(53, 4096)
(35, 4096) (18, 4096)
9 train batches and 5 test batches of 4 mini batch size and 2 steps per epoch
Model: "model_1"
_________________________________________________________________
 Layer (type)                Output Shape              Param #   
=================================================================
 input_1 (InputLayer)        [(None, 4096)]            0         
                                                                 
 dense_2 (Dense)             (None, 64)                262208    
                                                                 
 dropout_1 (Dropout)         (None, 64)                0         
                                                                 
 dense_3 (Dense)             (None, 8)                 520       
                                                                 
 dropout_2 (Dropout)         (None, 8)                 0         
                                                                 
 dense_4 (Dense)             (None, 1)                 9         
                                                                 
=================================================================
Total params: 262,737
Trainable params: 262,737
Non-trainable params: 0
_________________________________________________________________
2022/09/21 12:47:40 WARNING mlflow.utils.autologging_utils: MLflow autologging encountered a warning: "/usr/local/lib/python3.8/dist-packages/_distutils_hack/__init__.py:30: UserWarning: Setuptools is replacing distutils."
…
Found GPU at: [PhysicalDevice(name='/physical_device:GPU:0', device_type='GPU')]
temblor
no         32
si         21
dtype: int64
(53,)
(53, 4096)
(35, 4096) (18, 4096)
9 train batches and 5 test batches of 4 mini batch size and 2 steps per epoch
Model: "model_2"
_________________________________________________________________
 Layer (type)                Output Shape              Param #   
=================================================================
 input_1 (InputLayer)        [(None, 4096)]            0         
                                                                 
 dense_5 (Dense)             (None, 64)                262208    
                                                                 
 dropout_3 (Dropout)         (None, 64)                0         
                                                                 
 dense_6 (Dense)             (None, 16)                1040      
                                                                 
 dropout_4 (Dropout)         (None, 16)                0         
                                                                 
 dense_7 (Dense)             (None, 16)                272       
                                                                 
 dropout_5 (Dropout)         (None, 16)                0         
                                                                 
 dense_8 (Dense)             (None, 8)                 136       
                                                                 
 dropout_6 (Dropout)         (None, 8)                 0         
                                                                 
 dense_9 (Dense)             (None, 1)                 9         
                                                                 
=================================================================
Total params: 263,665
Trainable params: 263,665
Non-trainable params: 0
_________________________________________________________________
2022/09/21 12:48:27 WARNING mlflow.utils.autologging_utils: MLflow autologging encountered a warning: "/usr/local/lib/python3.8/dist-packages/_distutils_hack/__init__.py:30: UserWarning: Setuptools is replacing distutils."
…
level
0        32
2        12
1         9
dtype: int64
0    32
2    12
1     9
Name: labels, dtype: int64
(53, 3)
(53, 4096)
(35, 4096) (18, 4096)
9 train batches and 5 test batches of 4 mini batch size and 2 steps per epoch
Model: "model_1"
_________________________________________________________________
 Layer (type)                Output Shape              Param #   
=================================================================
 input_1 (InputLayer)        [(None, 4096)]            0         
                                                                 
 dense_2 (Dense)             (None, 64)                262208    
                                                                 
 dropout_1 (Dropout)         (None, 64)                0         
                                                                 
 dense_3 (Dense)             (None, 8)                 520       
                                                                 
 dropout_2 (Dropout)         (None, 8)                 0         
                                                                 
 dense_4 (Dense)             (None, 3)                 27        
                                                                 
=================================================================
Total params: 262,755
Trainable params: 262,755
Non-trainable params: 0
_________________________________________________________________
2022/09/21 12:50:31 WARNING mlflow.utils.autologging_utils: MLflow autologging encountered a warning: "/usr/local/lib/python3.8/dist-packages/_distutils_hack/__init__.py:30: UserWarning: Setuptools is replacing distutils."
…
level
0        32
2        12
1         9
dtype: int64
0    32
2    12
1     9
Name: labels, dtype: int64
(53, 3)
(53, 4096)
(35, 4096) (18, 4096)
9 train batches and 5 test batches of 4 mini batch size and 2 steps per epoch
Model: "model_2"
_________________________________________________________________
 Layer (type)                Output Shape              Param #   
=================================================================
 input_1 (InputLayer)        [(None, 4096)]            0         
                                                                 
 dense_5 (Dense)             (None, 64)                262208    
                                                                 
 dropout_3 (Dropout)         (None, 64)                0         
                                                                 
 dense_6 (Dense)             (None, 16)                1040      
                                                                 
 dropout_4 (Dropout)         (None, 16)                0         
                                                                 
 dense_7 (Dense)             (None, 16)                272       
                                                                 
 dropout_5 (Dropout)         (None, 16)                0         
                                                                 
 dense_8 (Dense)             (None, 8)                 136       
                                                                 
 dropout_6 (Dropout)         (None, 8)                 0         
                                                                 
 dense_9 (Dense)             (None, 3)                 27        
                                                                 
=================================================================
Total params: 263,683
Trainable params: 263,683
Non-trainable params: 0
_________________________________________________________________
2022/09/21 12:51:16 WARNING mlflow.utils.autologging_utils: MLflow autologging encountered a warning: "/usr/local/lib/python3.8/dist-packages/_distutils_hack/__init__.py:30: UserWarning: Setuptools is replacing distutils."
…
Found GPU at: [PhysicalDevice(name='/physical_device:GPU:0', device_type='GPU')]
temblor
no         32
si         21
dtype: int64
(53,)
(53, 3841)
(35, 3841) (18, 3841)
9 train batches and 5 test batches of 4 mini batch size and 2 steps per epoch
Model: "model_1"
_________________________________________________________________
 Layer (type)                Output Shape              Param #   
=================================================================
 input_1 (InputLayer)        [(None, 3841)]            0         
                                                                 
 dense_2 (Dense)             (None, 64)                245888    
                                                                 
 dropout_1 (Dropout)         (None, 64)                0         
                                                                 
 dense_3 (Dense)             (None, 8)                 520       
                                                                 
 dropout_2 (Dropout)         (None, 8)                 0         
                                                                 
 dense_4 (Dense)             (None, 1)                 9         
                                                                 
=================================================================
Total params: 246,417
Trainable params: 246,417
Non-trainable params: 0
_________________________________________________________________
2022/09/21 12:52:58 WARNING mlflow.utils.autologging_utils: MLflow autologging encountered a warning: "/usr/local/lib/python3.8/dist-packages/_distutils_hack/__init__.py:30: UserWarning: Setuptools is replacing distutils."
…
Found GPU at: [PhysicalDevice(name='/physical_device:GPU:0', device_type='GPU')]
temblor
no         32
si         21
dtype: int64
(53,)
(53, 3841)
(35, 3841) (18, 3841)
9 train batches and 5 test batches of 4 mini batch size and 2 steps per epoch
Model: "model_2"
_________________________________________________________________
 Layer (type)                Output Shape              Param #   
=================================================================
 input_1 (InputLayer)        [(None, 3841)]            0         
                                                                 
 dense_5 (Dense)             (None, 64)                245888    
                                                                 
 dropout_3 (Dropout)         (None, 64)                0         
                                                                 
 dense_6 (Dense)             (None, 16)                1040      
                                                                 
 dropout_4 (Dropout)         (None, 16)                0         
                                                                 
 dense_7 (Dense)             (None, 16)                272       
                                                                 
 dropout_5 (Dropout)         (None, 16)                0         
                                                                 
 dense_8 (Dense)             (None, 8)                 136       
                                                                 
 dropout_6 (Dropout)         (None, 8)                 0         
                                                                 
 dense_9 (Dense)             (None, 1)                 9         
                                                                 
=================================================================
Total params: 247,345
Trainable params: 247,345
Non-trainable params: 0
_________________________________________________________________
2022/09/21 12:53:50 WARNING mlflow.utils.autologging_utils: MLflow autologging encountered a warning: "/usr/local/lib/python3.8/dist-packages/_distutils_hack/__init__.py:30: UserWarning: Setuptools is replacing distutils."
…
level
0        32
2        12
1         9
dtype: int64
0    32
2    12
1     9
Name: labels, dtype: int64
(53, 3)
(53, 3841)
(35, 3841) (18, 3841)
9 train batches and 5 test batches of 4 mini batch size and 2 steps per epoch
Model: "model_1"
_________________________________________________________________
 Layer (type)                Output Shape              Param #   
=================================================================
 input_1 (InputLayer)        [(None, 3841)]            0         
                                                                 
 dense_2 (Dense)             (None, 64)                245888    
                                                                 
 dropout_1 (Dropout)         (None, 64)                0         
                                                                 
 dense_3 (Dense)             (None, 8)                 520       
                                                                 
 dropout_2 (Dropout)         (None, 8)                 0         
                                                                 
 dense_4 (Dense)             (None, 3)                 27        
                                                                 
=================================================================
Total params: 246,435
Trainable params: 246,435
Non-trainable params: 0
_________________________________________________________________
2022/09/21 12:55:27 WARNING mlflow.utils.autologging_utils: MLflow autologging encountered a warning: "/usr/local/lib/python3.8/dist-packages/_distutils_hack/__init__.py:30: UserWarning: Setuptools is replacing distutils."
…
level
0        32
2        12
1         9
dtype: int64
0    32
2    12
1     9
Name: labels, dtype: int64
(53, 3)
(53, 3841)
(35, 3841) (18, 3841)
9 train batches and 5 test batches of 4 mini batch size and 2 steps per epoch
Model: "model_2"
_________________________________________________________________
 Layer (type)                Output Shape              Param #   
=================================================================
 input_1 (InputLayer)        [(None, 3841)]            0         
                                                                 
 dense_5 (Dense)             (None, 64)                245888    
                                                                 
 dropout_3 (Dropout)         (None, 64)                0         
                                                                 
 dense_6 (Dense)             (None, 16)                1040      
                                                                 
 dropout_4 (Dropout)         (None, 16)                0         
                                                                 
 dense_7 (Dense)             (None, 16)                272       
                                                                 
 dropout_5 (Dropout)         (None, 16)                0         
                                                                 
 dense_8 (Dense)             (None, 8)                 136       
                                                                 
 dropout_6 (Dropout)         (None, 8)                 0         
                                                                 
 dense_9 (Dense)             (None, 3)                 27        
                                                                 
=================================================================
Total params: 247,363
Trainable params: 247,363
Non-trainable params: 0
_________________________________________________________________
2022/09/21 12:56:13 WARNING mlflow.utils.autologging_utils: MLflow autologging encountered a warning: "/usr/local/lib/python3.8/dist-packages/_distutils_hack/__init__.py:30: UserWarning: Setuptools is replacing distutils."
…
